
--- Analysis Run: 2026-04-04 20:52:37 ---
 Hugging Face Loaded 
Model Summary for dinov3_vits16plus
------------------------------
==================================================================================================================================
Layer (type:depth-idx)                             Input Shape          Output Shape         Param #              Mult-Adds
==================================================================================================================================
DINOv3ViTModel                                     [2, 3, 448, 448]     [2, 384]             --                   --
├─DINOv3ViTEmbeddings: 1-1                         [2, 3, 448, 448]     [2, 789, 384]        2,304                --
│    └─Conv2d: 2-1                                 [2, 3, 448, 448]     [2, 384, 28, 28]     295,296              463,024,128
├─DINOv3ViTRopePositionEmbedding: 1-2              [2, 3, 448, 448]     [784, 64]            --                   --
├─DINOv3ViTEncoder: 1-3                            [2, 789, 384]        [2, 789, 384]        --                   --
│    └─ModuleList: 2-2                             --                   --                   --                   --
│    │    └─DINOv3ViTLayer: 3-1                    [2, 789, 384]        [2, 789, 384]        2,366,208            4,730,880
│    │    └─DINOv3ViTLayer: 3-2                    [2, 789, 384]        [2, 789, 384]        2,366,208            4,730,880
│    │    └─DINOv3ViTLayer: 3-3                    [2, 789, 384]        [2, 789, 384]        2,366,208            4,730,880
│    │    └─DINOv3ViTLayer: 3-4                    [2, 789, 384]        [2, 789, 384]        2,366,208            4,730,880
│    │    └─DINOv3ViTLayer: 3-5                    [2, 789, 384]        [2, 789, 384]        2,366,208            4,730,880
│    │    └─DINOv3ViTLayer: 3-6                    [2, 789, 384]        [2, 789, 384]        2,366,208            4,730,880
│    │    └─DINOv3ViTLayer: 3-7                    [2, 789, 384]        [2, 789, 384]        2,366,208            4,730,880
│    │    └─DINOv3ViTLayer: 3-8                    [2, 789, 384]        [2, 789, 384]        2,366,208            4,730,880
│    │    └─DINOv3ViTLayer: 3-9                    [2, 789, 384]        [2, 789, 384]        2,366,208            4,730,880
│    │    └─DINOv3ViTLayer: 3-10                   [2, 789, 384]        [2, 789, 384]        2,366,208            4,730,880
│    │    └─DINOv3ViTLayer: 3-11                   [2, 789, 384]        [2, 789, 384]        2,366,208            4,730,880
│    │    └─DINOv3ViTLayer: 3-12                   [2, 789, 384]        [2, 789, 384]        2,366,208            4,730,880
├─LayerNorm: 1-4                                   [2, 789, 384]        [2, 789, 384]        768                  1,536
==================================================================================================================================
Total params: 28,692,864
Trainable params: 28,692,864
Non-trainable params: 0
Total mult-adds (Units.MEGABYTES): 519.80
==================================================================================================================================
…
ImageNet mean: (0.485, 0.456, 0.406)ImageNet std: (0.229, 0.224, 0.225)------------------------------

--- Analysis Run: 2026-04-06 00:40:08 ---
 Hugging Face Loaded 
Model Summary for dinov3_vits16plus
------------------------------
==================================================================================================================================
Layer (type:depth-idx)                             Input Shape          Output Shape         Param #              Mult-Adds
==================================================================================================================================
DINOv3ViTModel                                     [2, 3, 288, 288]     [2, 384]             --                   --
├─DINOv3ViTEmbeddings: 1-1                         [2, 3, 288, 288]     [2, 329, 384]        2,304                --
│    └─Conv2d: 2-1                                 [2, 3, 288, 288]     [2, 384, 18, 18]     295,296              191,351,808
├─DINOv3ViTRopePositionEmbedding: 1-2              [2, 3, 288, 288]     [324, 64]            --                   --
├─DINOv3ViTEncoder: 1-3                            [2, 329, 384]        [2, 329, 384]        --                   --
│    └─ModuleList: 2-2                             --                   --                   --                   --
│    │    └─DINOv3ViTLayer: 3-1                    [2, 329, 384]        [2, 329, 384]        2,366,208            4,730,880
│    │    └─DINOv3ViTLayer: 3-2                    [2, 329, 384]        [2, 329, 384]        2,366,208            4,730,880
│    │    └─DINOv3ViTLayer: 3-3                    [2, 329, 384]        [2, 329, 384]        2,366,208            4,730,880
│    │    └─DINOv3ViTLayer: 3-4                    [2, 329, 384]        [2, 329, 384]        2,366,208            4,730,880
│    │    └─DINOv3ViTLayer: 3-5                    [2, 329, 384]        [2, 329, 384]        2,366,208            4,730,880
│    │    └─DINOv3ViTLayer: 3-6                    [2, 329, 384]        [2, 329, 384]        2,366,208            4,730,880
│    │    └─DINOv3ViTLayer: 3-7                    [2, 329, 384]        [2, 329, 384]        2,366,208            4,730,880
│    │    └─DINOv3ViTLayer: 3-8                    [2, 329, 384]        [2, 329, 384]        2,366,208            4,730,880
│    │    └─DINOv3ViTLayer: 3-9                    [2, 329, 384]        [2, 329, 384]        2,366,208            4,730,880
│    │    └─DINOv3ViTLayer: 3-10                   [2, 329, 384]        [2, 329, 384]        2,366,208            4,730,880
│    │    └─DINOv3ViTLayer: 3-11                   [2, 329, 384]        [2, 329, 384]        2,366,208            4,730,880
│    │    └─DINOv3ViTLayer: 3-12                   [2, 329, 384]        [2, 329, 384]        2,366,208            4,730,880
├─LayerNorm: 1-4                                   [2, 329, 384]        [2, 329, 384]        768                  1,536
==================================================================================================================================
Total params: 28,692,864
Trainable params: 28,692,864
Non-trainable params: 0
Total mult-adds (Units.MEGABYTES): 248.12
==================================================================================================================================
…
ImageNet mean: (0.485, 0.456, 0.406)ImageNet std: (0.229, 0.224, 0.225)------------------------------

--- Analysis Run: 2026-04-06 00:45:03 ---
 Hugging Face Loaded 
Model Summary for dinov3_vits16plus
------------------------------
==================================================================================================================================
Layer (type:depth-idx)                             Input Shape          Output Shape         Param #              Mult-Adds
==================================================================================================================================
DINOv3ViTModel                                     [1, 3, 448, 448]     [1, 384]             --                   --
├─DINOv3ViTEmbeddings: 1-1                         [1, 3, 448, 448]     [1, 789, 384]        2,304                --
│    └─Conv2d: 2-1                                 [1, 3, 448, 448]     [1, 384, 28, 28]     295,296              231,512,064
├─DINOv3ViTRopePositionEmbedding: 1-2              [1, 3, 448, 448]     [784, 64]            --                   --
├─DINOv3ViTEncoder: 1-3                            [1, 789, 384]        [1, 789, 384]        --                   --
│    └─ModuleList: 2-2                             --                   --                   --                   --
│    │    └─DINOv3ViTLayer: 3-1                    [1, 789, 384]        [1, 789, 384]        2,366,208            2,365,440
│    │    └─DINOv3ViTLayer: 3-2                    [1, 789, 384]        [1, 789, 384]        2,366,208            2,365,440
│    │    └─DINOv3ViTLayer: 3-3                    [1, 789, 384]        [1, 789, 384]        2,366,208            2,365,440
│    │    └─DINOv3ViTLayer: 3-4                    [1, 789, 384]        [1, 789, 384]        2,366,208            2,365,440
│    │    └─DINOv3ViTLayer: 3-5                    [1, 789, 384]        [1, 789, 384]        2,366,208            2,365,440
│    │    └─DINOv3ViTLayer: 3-6                    [1, 789, 384]        [1, 789, 384]        2,366,208            2,365,440
│    │    └─DINOv3ViTLayer: 3-7                    [1, 789, 384]        [1, 789, 384]        2,366,208            2,365,440
│    │    └─DINOv3ViTLayer: 3-8                    [1, 789, 384]        [1, 789, 384]        2,366,208            2,365,440
│    │    └─DINOv3ViTLayer: 3-9                    [1, 789, 384]        [1, 789, 384]        2,366,208            2,365,440
│    │    └─DINOv3ViTLayer: 3-10                   [1, 789, 384]        [1, 789, 384]        2,366,208            2,365,440
│    │    └─DINOv3ViTLayer: 3-11                   [1, 789, 384]        [1, 789, 384]        2,366,208            2,365,440
│    │    └─DINOv3ViTLayer: 3-12                   [1, 789, 384]        [1, 789, 384]        2,366,208            2,365,440
├─LayerNorm: 1-4                                   [1, 789, 384]        [1, 789, 384]        768                  768
==================================================================================================================================
Total params: 28,692,864
Trainable params: 28,692,864
Non-trainable params: 0
Total mult-adds (Units.MEGABYTES): 259.90
==================================================================================================================================
…
