
--- Analysis Run: 2026-04-04 20:52:37 ---
 Hugging Face Loaded 
Model Summary for dinov3_vits16plus
------------------------------
==================================================================================================================================
Layer (type:depth-idx)                             Input Shape          Output Shape         Param #              Mult-Adds
==================================================================================================================================
DINOv3ViTModel                                     [2, 3, 448, 448]     [2, 384]             --                   --
├─DINOv3ViTEmbeddings: 1-1                         [2, 3, 448, 448]     [2, 789, 384]        2,304                --
│    └─Conv2d: 2-1                                 [2, 3, 448, 448]     [2, 384, 28, 28]     295,296              463,024,128
├─DINOv3ViTRopePositionEmbedding: 1-2              [2, 3, 448, 448]     [784, 64]            --                   --
├─DINOv3ViTEncoder: 1-3                            [2, 789, 384]        [2, 789, 384]        --                   --
│    └─ModuleList: 2-2                             --                   --                   --                   --
│    │    └─DINOv3ViTLayer: 3-1                    [2, 789, 384]        [2, 789, 384]        2,366,208            4,730,880
│    │    └─DINOv3ViTLayer: 3-2                    [2, 789, 384]        [2, 789, 384]        2,366,208            4,730,880
│    │    └─DINOv3ViTLayer: 3-3                    [2, 789, 384]        [2, 789, 384]        2,366,208            4,730,880
│    │    └─DINOv3ViTLayer: 3-4                    [2, 789, 384]        [2, 789, 384]        2,366,208            4,730,880
│    │    └─DINOv3ViTLayer: 3-5                    [2, 789, 384]        [2, 789, 384]        2,366,208            4,730,880
│    │    └─DINOv3ViTLayer: 3-6                    [2, 789, 384]        [2, 789, 384]        2,366,208            4,730,880
│    │    └─DINOv3ViTLayer: 3-7                    [2, 789, 384]        [2, 789, 384]        2,366,208            4,730,880
│    │    └─DINOv3ViTLayer: 3-8                    [2, 789, 384]        [2, 789, 384]        2,366,208            4,730,880
│    │    └─DINOv3ViTLayer: 3-9                    [2, 789, 384]        [2, 789, 384]        2,366,208            4,730,880
│    │    └─DINOv3ViTLayer: 3-10                   [2, 789, 384]        [2, 789, 384]        2,366,208            4,730,880
│    │    └─DINOv3ViTLayer: 3-11                   [2, 789, 384]        [2, 789, 384]        2,366,208            4,730,880
│    │    └─DINOv3ViTLayer: 3-12                   [2, 789, 384]        [2, 789, 384]        2,366,208            4,730,880
├─LayerNorm: 1-4                                   [2, 789, 384]        [2, 789, 384]        768                  1,536
==================================================================================================================================
Total params: 28,692,864
Trainable params: 28,692,864
Non-trainable params: 0
Total mult-adds (Units.MEGABYTES): 519.80
==================================================================================================================================
…
