…
  (norm): LayerNorm((384,), eps=1e-05, elementwise_affine=True)
  (head): Identity()
)
------------------------------
Model Summary for dinov3_vits16plus
------------------------------
=============================================================================================================================
Layer (type:depth-idx)                        Input Shape          Output Shape         Param #              Mult-Adds
=============================================================================================================================
DinoVisionTransformer                         [8, 3, 448, 448]     [8, 384]             2,304                --
├─PatchEmbed: 1-1                             [8, 3, 448, 448]     [8, 28, 28, 384]     --                   --
│    └─Conv2d: 2-1                            [8, 3, 448, 448]     [8, 384, 28, 28]     295,296              1,852,096,512
│    └─Identity: 2-2                          [8, 784, 384]        [8, 784, 384]        --                   --
├─RopePositionEmbedding: 1-2                  --                   [784, 64]            --                   --
├─ModuleList: 1-25                            --                   --                   (recursive)          --
│    └─SelfAttentionBlock: 2-3                [8, 789, 384]        [8, 789, 384]        --                   --
│    │    └─LayerNorm: 3-1                    [8, 789, 384]        [8, 789, 384]        768                  6,144
│    │    └─SelfAttention: 3-2                [8, 789, 384]        [8, 789, 384]        591,360              4,730,880
│    │    └─LayerScale: 3-3                   [8, 789, 384]        [8, 789, 384]        384                  --
│    │    └─LayerNorm: 3-4                    [8, 789, 384]        [8, 789, 384]        768                  6,144
│    │    └─SwiGLUFFN: 3-5                    [8, 789, 384]        [8, 789, 384]        1,772,928            14,183,424
│    │    └─LayerScale: 3-6                   [8, 789, 384]        [8, 789, 384]        384                  --
├─RopePositionEmbedding: 1-4                  --                   [784, 64]            --                   --
├─ModuleList: 1-25                            --                   --                   (recursive)          --
│    └─SelfAttentionBlock: 2-4                [8, 789, 384]        [8, 789, 384]        --                   --
│    │    └─LayerNorm: 3-7                    [8, 789, 384]        [8, 789, 384]        768                  6,144
│    │    └─SelfAttention: 3-8                [8, 789, 384]        [8, 789, 384]        591,360              4,730,880
│    │    └─LayerScale: 3-9                   [8, 789, 384]        [8, 789, 384]        384                  --
│    │    └─LayerNorm: 3-10                   [8, 789, 384]        [8, 789, 384]        768                  6,144
│    │    └─SwiGLUFFN: 3-11                   [8, 789, 384]        [8, 789, 384]        1,772,928            14,183,424
│    │    └─LayerScale: 3-12                  [8, 789, 384]        [8, 789, 384]        384                  --
├─RopePositionEmbedding: 1-6                  --                   [784, 64]            --                   --
├─ModuleList: 1-25                            --                   --                   (recursive)          --
│    └─SelfAttentionBlock: 2-5                [8, 789, 384]        [8, 789, 384]        --                   --
│    │    └─LayerNorm: 3-13                   [8, 789, 384]        [8, 789, 384]        768                  6,144
│    │    └─SelfAttention: 3-14               [8, 789, 384]        [8, 789, 384]        591,360              4,730,880
│    │    └─LayerScale: 3-15                  [8, 789, 384]        [8, 789, 384]        384                  --
│    │    └─LayerNorm: 3-16                   [8, 789, 384]        [8, 789, 384]        768                  6,144
│    │    └─SwiGLUFFN: 3-17                   [8, 789, 384]        [8, 789, 384]        1,772,928            14,183,424
│    │    └─LayerScale: 3-18                  [8, 789, 384]        [8, 789, 384]        384                  --
├─RopePositionEmbedding: 1-8                  --                   [784, 64]            --                   --
├─ModuleList: 1-25                            --                   --                   (recursive)          --
│    └─SelfAttentionBlock: 2-6                [8, 789, 384]        [8, 789, 384]        --                   --
│    │    └─LayerNorm: 3-19                   [8, 789, 384]        [8, 789, 384]        768                  6,144
│    │    └─SelfAttention: 3-20               [8, 789, 384]        [8, 789, 384]        591,360              4,730,880
│    │    └─LayerScale: 3-21                  [8, 789, 384]        [8, 789, 384]        384                  --
│    │    └─LayerNorm: 3-22                   [8, 789, 384]        [8, 789, 384]        768                  6,144
│    │    └─SwiGLUFFN: 3-23                   [8, 789, 384]        [8, 789, 384]        1,772,928            14,183,424
│    │    └─LayerScale: 3-24                  [8, 789, 384]        [8, 789, 384]        384                  --
├─RopePositionEmbedding: 1-10                 --                   [784, 64]            --                   --
├─ModuleList: 1-25                            --                   --                   (recursive)          --
│    └─SelfAttentionBlock: 2-7                [8, 789, 384]        [8, 789, 384]        --                   --
│    │    └─LayerNorm: 3-25                   [8, 789, 384]        [8, 789, 384]        768                  6,144
│    │    └─SelfAttention: 3-26               [8, 789, 384]        [8, 789, 384]        591,360              4,730,880
│    │    └─LayerScale: 3-27                  [8, 789, 384]        [8, 789, 384]        384                  --
│    │    └─LayerNorm: 3-28                   [8, 789, 384]        [8, 789, 384]        768                  6,144
│    │    └─SwiGLUFFN: 3-29                   [8, 789, 384]        [8, 789, 384]        1,772,928            14,183,424
│    │    └─LayerScale: 3-30                  [8, 789, 384]        [8, 789, 384]        384                  --
├─RopePositionEmbedding: 1-12                 --                   [784, 64]            --                   --
├─ModuleList: 1-25                            --                   --                   (recursive)          --
│    └─SelfAttentionBlock: 2-8                [8, 789, 384]        [8, 789, 384]        --                   --
│    │    └─LayerNorm: 3-31                   [8, 789, 384]        [8, 789, 384]        768                  6,144
│    │    └─SelfAttention: 3-32               [8, 789, 384]        [8, 789, 384]        591,360              4,730,880
│    │    └─LayerScale: 3-33                  [8, 789, 384]        [8, 789, 384]        384                  --
│    │    └─LayerNorm: 3-34                   [8, 789, 384]        [8, 789, 384]        768                  6,144
│    │    └─SwiGLUFFN: 3-35                   [8, 789, 384]        [8, 789, 384]        1,772,928            14,183,424
│    │    └─LayerScale: 3-36                  [8, 789, 384]        [8, 789, 384]        384                  --
├─RopePositionEmbedding: 1-14                 --                   [784, 64]            --                   --
├─ModuleList: 1-25                            --                   --                   (recursive)          --
│    └─SelfAttentionBlock: 2-9                [8, 789, 384]        [8, 789, 384]        --                   --
│    │    └─LayerNorm: 3-37                   [8, 789, 384]        [8, 789, 384]        768                  6,144
│    │    └─SelfAttention: 3-38               [8, 789, 384]        [8, 789, 384]        591,360              4,730,880
│    │    └─LayerScale: 3-39                  [8, 789, 384]        [8, 789, 384]        384                  --
│    │    └─LayerNorm: 3-40                   [8, 789, 384]        [8, 789, 384]        768                  6,144
│    │    └─SwiGLUFFN: 3-41                   [8, 789, 384]        [8, 789, 384]        1,772,928            14,183,424
│    │    └─LayerScale: 3-42                  [8, 789, 384]        [8, 789, 384]        384                  --
├─RopePositionEmbedding: 1-16                 --                   [784, 64]            --                   --
├─ModuleList: 1-25                            --                   --                   (recursive)          --
│    └─SelfAttentionBlock: 2-10               [8, 789, 384]        [8, 789, 384]        --                   --
│    │    └─LayerNorm: 3-43                   [8, 789, 384]        [8, 789, 384]        768                  6,144
│    │    └─SelfAttention: 3-44               [8, 789, 384]        [8, 789, 384]        591,360              4,730,880
│    │    └─LayerScale: 3-45                  [8, 789, 384]        [8, 789, 384]        384                  --
│    │    └─LayerNorm: 3-46                   [8, 789, 384]        [8, 789, 384]        768                  6,144
│    │    └─SwiGLUFFN: 3-47                   [8, 789, 384]        [8, 789, 384]        1,772,928            14,183,424
│    │    └─LayerScale: 3-48                  [8, 789, 384]        [8, 789, 384]        384                  --
├─RopePositionEmbedding: 1-18                 --                   [784, 64]            --                   --
├─ModuleList: 1-25                            --                   --                   (recursive)          --
│    └─SelfAttentionBlock: 2-11               [8, 789, 384]        [8, 789, 384]        --                   --
│    │    └─LayerNorm: 3-49                   [8, 789, 384]        [8, 789, 384]        768                  6,144
│    │    └─SelfAttention: 3-50               [8, 789, 384]        [8, 789, 384]        591,360              4,730,880
│    │    └─LayerScale: 3-51                  [8, 789, 384]        [8, 789, 384]        384                  --
│    │    └─LayerNorm: 3-52                   [8, 789, 384]        [8, 789, 384]        768                  6,144
│    │    └─SwiGLUFFN: 3-53                   [8, 789, 384]        [8, 789, 384]        1,772,928            14,183,424
│    │    └─LayerScale: 3-54                  [8, 789, 384]        [8, 789, 384]        384                  --
├─RopePositionEmbedding: 1-20                 --                   [784, 64]            --                   --
├─ModuleList: 1-25                            --                   --                   (recursive)          --
│    └─SelfAttentionBlock: 2-12               [8, 789, 384]        [8, 789, 384]        --                   --
│    │    └─LayerNorm: 3-55                   [8, 789, 384]        [8, 789, 384]        768                  6,144
│    │    └─SelfAttention: 3-56               [8, 789, 384]        [8, 789, 384]        591,360              4,730,880
│    │    └─LayerScale: 3-57                  [8, 789, 384]        [8, 789, 384]        384                  --
│    │    └─LayerNorm: 3-58                   [8, 789, 384]        [8, 789, 384]        768                  6,144
│    │    └─SwiGLUFFN: 3-59                   [8, 789, 384]        [8, 789, 384]        1,772,928            14,183,424
│    │    └─LayerScale: 3-60                  [8, 789, 384]        [8, 789, 384]        384                  --
├─RopePositionEmbedding: 1-22                 --                   [784, 64]            --                   --
├─ModuleList: 1-25                            --                   --                   (recursive)          --
│    └─SelfAttentionBlock: 2-13               [8, 789, 384]        [8, 789, 384]        --                   --
│    │    └─LayerNorm: 3-61                   [8, 789, 384]        [8, 789, 384]        768                  6,144
│    │    └─SelfAttention: 3-62               [8, 789, 384]        [8, 789, 384]        591,360              4,730,880
│    │    └─LayerScale: 3-63                  [8, 789, 384]        [8, 789, 384]        384                  --
│    │    └─LayerNorm: 3-64                   [8, 789, 384]        [8, 789, 384]        768                  6,144
│    │    └─SwiGLUFFN: 3-65                   [8, 789, 384]        [8, 789, 384]        1,772,928            14,183,424
│    │    └─LayerScale: 3-66                  [8, 789, 384]        [8, 789, 384]        384                  --
├─RopePositionEmbedding: 1-24                 --                   [784, 64]            --                   --
├─ModuleList: 1-25                            --                   --                   (recursive)          --
│    └─SelfAttentionBlock: 2-14               [8, 789, 384]        [8, 789, 384]        --                   --
│    │    └─LayerNorm: 3-67                   [8, 789, 384]        [8, 789, 384]        768                  6,144
│    │    └─SelfAttention: 3-68               [8, 789, 384]        [8, 789, 384]        591,360              4,730,880
│    │    └─LayerScale: 3-69                  [8, 789, 384]        [8, 789, 384]        384                  --
│    │    └─LayerNorm: 3-70                   [8, 789, 384]        [8, 789, 384]        768                  6,144
│    │    └─SwiGLUFFN: 3-71                   [8, 789, 384]        [8, 789, 384]        1,772,928            14,183,424
│    │    └─LayerScale: 3-72                  [8, 789, 384]        [8, 789, 384]        384                  --
├─LayerNorm: 1-26                             [8, 789, 384]        [8, 789, 384]        768                  6,144
├─Identity: 1-27                              [8, 384]             [8, 384]             --                   --
=============================================================================================================================
Total params: 28,697,472
Trainable params: 28,697,472
Non-trainable params: 0
Total mult-adds (Units.GIGABYTES): 2.08
=============================================================================================================================
Input size (MB): 19.27
…
  (norm): LayerNorm((384,), eps=1e-05, elementwise_affine=True)
  (head): Identity()
)
------------------------------
Model Summary for dinov3_vits16plus
------------------------------
=============================================================================================================================
Layer (type:depth-idx)                        Input Shape          Output Shape         Param #              Mult-Adds
=============================================================================================================================
DinoVisionTransformer                         [2, 3, 80, 80]       [2, 384]             2,304                --
├─PatchEmbed: 1-1                             [2, 3, 80, 80]       [2, 5, 5, 384]       --                   --
│    └─Conv2d: 2-1                            [2, 3, 80, 80]       [2, 384, 5, 5]       295,296              14,764,800
│    └─Identity: 2-2                          [2, 25, 384]         [2, 25, 384]         --                   --
├─RopePositionEmbedding: 1-2                  --                   [25, 64]             --                   --
├─ModuleList: 1-25                            --                   --                   (recursive)          --
│    └─SelfAttentionBlock: 2-3                [2, 30, 384]         [2, 30, 384]         --                   --
│    │    └─LayerNorm: 3-1                    [2, 30, 384]         [2, 30, 384]         768                  1,536
│    │    └─SelfAttention: 3-2                [2, 30, 384]         [2, 30, 384]         591,360              1,182,720
│    │    └─LayerScale: 3-3                   [2, 30, 384]         [2, 30, 384]         384                  --
│    │    └─LayerNorm: 3-4                    [2, 30, 384]         [2, 30, 384]         768                  1,536
│    │    └─SwiGLUFFN: 3-5                    [2, 30, 384]         [2, 30, 384]         1,772,928            3,545,856
│    │    └─LayerScale: 3-6                   [2, 30, 384]         [2, 30, 384]         384                  --
├─RopePositionEmbedding: 1-4                  --                   [25, 64]             --                   --
├─ModuleList: 1-25                            --                   --                   (recursive)          --
│    └─SelfAttentionBlock: 2-4                [2, 30, 384]         [2, 30, 384]         --                   --
│    │    └─LayerNorm: 3-7                    [2, 30, 384]         [2, 30, 384]         768                  1,536
│    │    └─SelfAttention: 3-8                [2, 30, 384]         [2, 30, 384]         591,360              1,182,720
│    │    └─LayerScale: 3-9                   [2, 30, 384]         [2, 30, 384]         384                  --
│    │    └─LayerNorm: 3-10                   [2, 30, 384]         [2, 30, 384]         768                  1,536
│    │    └─SwiGLUFFN: 3-11                   [2, 30, 384]         [2, 30, 384]         1,772,928            3,545,856
│    │    └─LayerScale: 3-12                  [2, 30, 384]         [2, 30, 384]         384                  --
├─RopePositionEmbedding: 1-6                  --                   [25, 64]             --                   --
├─ModuleList: 1-25                            --                   --                   (recursive)          --
│    └─SelfAttentionBlock: 2-5                [2, 30, 384]         [2, 30, 384]         --                   --
│    │    └─LayerNorm: 3-13                   [2, 30, 384]         [2, 30, 384]         768                  1,536
│    │    └─SelfAttention: 3-14               [2, 30, 384]         [2, 30, 384]         591,360              1,182,720
│    │    └─LayerScale: 3-15                  [2, 30, 384]         [2, 30, 384]         384                  --
│    │    └─LayerNorm: 3-16                   [2, 30, 384]         [2, 30, 384]         768                  1,536
│    │    └─SwiGLUFFN: 3-17                   [2, 30, 384]         [2, 30, 384]         1,772,928            3,545,856
│    │    └─LayerScale: 3-18                  [2, 30, 384]         [2, 30, 384]         384                  --
├─RopePositionEmbedding: 1-8                  --                   [25, 64]             --                   --
├─ModuleList: 1-25                            --                   --                   (recursive)          --
│    └─SelfAttentionBlock: 2-6                [2, 30, 384]         [2, 30, 384]         --                   --
│    │    └─LayerNorm: 3-19                   [2, 30, 384]         [2, 30, 384]         768                  1,536
│    │    └─SelfAttention: 3-20               [2, 30, 384]         [2, 30, 384]         591,360              1,182,720
│    │    └─LayerScale: 3-21                  [2, 30, 384]         [2, 30, 384]         384                  --
│    │    └─LayerNorm: 3-22                   [2, 30, 384]         [2, 30, 384]         768                  1,536
│    │    └─SwiGLUFFN: 3-23                   [2, 30, 384]         [2, 30, 384]         1,772,928            3,545,856
│    │    └─LayerScale: 3-24                  [2, 30, 384]         [2, 30, 384]         384                  --
├─RopePositionEmbedding: 1-10                 --                   [25, 64]             --                   --
├─ModuleList: 1-25                            --                   --                   (recursive)          --
│    └─SelfAttentionBlock: 2-7                [2, 30, 384]         [2, 30, 384]         --                   --
│    │    └─LayerNorm: 3-25                   [2, 30, 384]         [2, 30, 384]         768                  1,536
│    │    └─SelfAttention: 3-26               [2, 30, 384]         [2, 30, 384]         591,360              1,182,720
│    │    └─LayerScale: 3-27                  [2, 30, 384]         [2, 30, 384]         384                  --
│    │    └─LayerNorm: 3-28                   [2, 30, 384]         [2, 30, 384]         768                  1,536
│    │    └─SwiGLUFFN: 3-29                   [2, 30, 384]         [2, 30, 384]         1,772,928            3,545,856
│    │    └─LayerScale: 3-30                  [2, 30, 384]         [2, 30, 384]         384                  --
├─RopePositionEmbedding: 1-12                 --                   [25, 64]             --                   --
├─ModuleList: 1-25                            --                   --                   (recursive)          --
│    └─SelfAttentionBlock: 2-8                [2, 30, 384]         [2, 30, 384]         --                   --
│    │    └─LayerNorm: 3-31                   [2, 30, 384]         [2, 30, 384]         768                  1,536
│    │    └─SelfAttention: 3-32               [2, 30, 384]         [2, 30, 384]         591,360              1,182,720
│    │    └─LayerScale: 3-33                  [2, 30, 384]         [2, 30, 384]         384                  --
│    │    └─LayerNorm: 3-34                   [2, 30, 384]         [2, 30, 384]         768                  1,536
│    │    └─SwiGLUFFN: 3-35                   [2, 30, 384]         [2, 30, 384]         1,772,928            3,545,856
│    │    └─LayerScale: 3-36                  [2, 30, 384]         [2, 30, 384]         384                  --
├─RopePositionEmbedding: 1-14                 --                   [25, 64]             --                   --
├─ModuleList: 1-25                            --                   --                   (recursive)          --
│    └─SelfAttentionBlock: 2-9                [2, 30, 384]         [2, 30, 384]         --                   --
│    │    └─LayerNorm: 3-37                   [2, 30, 384]         [2, 30, 384]         768                  1,536
│    │    └─SelfAttention: 3-38               [2, 30, 384]         [2, 30, 384]         591,360              1,182,720
│    │    └─LayerScale: 3-39                  [2, 30, 384]         [2, 30, 384]         384                  --
│    │    └─LayerNorm: 3-40                   [2, 30, 384]         [2, 30, 384]         768                  1,536
│    │    └─SwiGLUFFN: 3-41                   [2, 30, 384]         [2, 30, 384]         1,772,928            3,545,856
│    │    └─LayerScale: 3-42                  [2, 30, 384]         [2, 30, 384]         384                  --
├─RopePositionEmbedding: 1-16                 --                   [25, 64]             --                   --
├─ModuleList: 1-25                            --                   --                   (recursive)          --
│    └─SelfAttentionBlock: 2-10               [2, 30, 384]         [2, 30, 384]         --                   --
│    │    └─LayerNorm: 3-43                   [2, 30, 384]         [2, 30, 384]         768                  1,536
│    │    └─SelfAttention: 3-44               [2, 30, 384]         [2, 30, 384]         591,360              1,182,720
│    │    └─LayerScale: 3-45                  [2, 30, 384]         [2, 30, 384]         384                  --
│    │    └─LayerNorm: 3-46                   [2, 30, 384]         [2, 30, 384]         768                  1,536
│    │    └─SwiGLUFFN: 3-47                   [2, 30, 384]         [2, 30, 384]         1,772,928            3,545,856
│    │    └─LayerScale: 3-48                  [2, 30, 384]         [2, 30, 384]         384                  --
├─RopePositionEmbedding: 1-18                 --                   [25, 64]             --                   --
├─ModuleList: 1-25                            --                   --                   (recursive)          --
│    └─SelfAttentionBlock: 2-11               [2, 30, 384]         [2, 30, 384]         --                   --
│    │    └─LayerNorm: 3-49                   [2, 30, 384]         [2, 30, 384]         768                  1,536
│    │    └─SelfAttention: 3-50               [2, 30, 384]         [2, 30, 384]         591,360              1,182,720
│    │    └─LayerScale: 3-51                  [2, 30, 384]         [2, 30, 384]         384                  --
│    │    └─LayerNorm: 3-52                   [2, 30, 384]         [2, 30, 384]         768                  1,536
│    │    └─SwiGLUFFN: 3-53                   [2, 30, 384]         [2, 30, 384]         1,772,928            3,545,856
│    │    └─LayerScale: 3-54                  [2, 30, 384]         [2, 30, 384]         384                  --
├─RopePositionEmbedding: 1-20                 --                   [25, 64]             --                   --
├─ModuleList: 1-25                            --                   --                   (recursive)          --
│    └─SelfAttentionBlock: 2-12               [2, 30, 384]         [2, 30, 384]         --                   --
│    │    └─LayerNorm: 3-55                   [2, 30, 384]         [2, 30, 384]         768                  1,536
│    │    └─SelfAttention: 3-56               [2, 30, 384]         [2, 30, 384]         591,360              1,182,720
│    │    └─LayerScale: 3-57                  [2, 30, 384]         [2, 30, 384]         384                  --
│    │    └─LayerNorm: 3-58                   [2, 30, 384]         [2, 30, 384]         768                  1,536
│    │    └─SwiGLUFFN: 3-59                   [2, 30, 384]         [2, 30, 384]         1,772,928            3,545,856
│    │    └─LayerScale: 3-60                  [2, 30, 384]         [2, 30, 384]         384                  --
├─RopePositionEmbedding: 1-22                 --                   [25, 64]             --                   --
├─ModuleList: 1-25                            --                   --                   (recursive)          --
│    └─SelfAttentionBlock: 2-13               [2, 30, 384]         [2, 30, 384]         --                   --
│    │    └─LayerNorm: 3-61                   [2, 30, 384]         [2, 30, 384]         768                  1,536
│    │    └─SelfAttention: 3-62               [2, 30, 384]         [2, 30, 384]         591,360              1,182,720
│    │    └─LayerScale: 3-63                  [2, 30, 384]         [2, 30, 384]         384                  --
│    │    └─LayerNorm: 3-64                   [2, 30, 384]         [2, 30, 384]         768                  1,536
│    │    └─SwiGLUFFN: 3-65                   [2, 30, 384]         [2, 30, 384]         1,772,928            3,545,856
│    │    └─LayerScale: 3-66                  [2, 30, 384]         [2, 30, 384]         384                  --
├─RopePositionEmbedding: 1-24                 --                   [25, 64]             --                   --
├─ModuleList: 1-25                            --                   --                   (recursive)          --
│    └─SelfAttentionBlock: 2-14               [2, 30, 384]         [2, 30, 384]         --                   --
│    │    └─LayerNorm: 3-67                   [2, 30, 384]         [2, 30, 384]         768                  1,536
│    │    └─SelfAttention: 3-68               [2, 30, 384]         [2, 30, 384]         591,360              1,182,720
│    │    └─LayerScale: 3-69                  [2, 30, 384]         [2, 30, 384]         384                  --
│    │    └─LayerNorm: 3-70                   [2, 30, 384]         [2, 30, 384]         768                  1,536
│    │    └─SwiGLUFFN: 3-71                   [2, 30, 384]         [2, 30, 384]         1,772,928            3,545,856
│    │    └─LayerScale: 3-72                  [2, 30, 384]         [2, 30, 384]         384                  --
├─LayerNorm: 1-26                             [2, 30, 384]         [2, 30, 384]         768                  1,536
├─Identity: 1-27                              [2, 384]             [2, 384]             --                   --
=============================================================================================================================
Total params: 28,697,472
Trainable params: 28,697,472
Non-trainable params: 0
Total mult-adds (Units.MEGABYTES): 71.55
=============================================================================================================================
Input size (MB): 0.15
…
  (norm): LayerNorm((384,), eps=1e-05, elementwise_affine=True)
  (head): Identity()
)
------------------------------
Model Summary for dinov3_vits16plus
------------------------------
=============================================================================================================================
Layer (type:depth-idx)                        Input Shape          Output Shape         Param #              Mult-Adds
=============================================================================================================================
DinoVisionTransformer                         [2, 3, 448, 448]     [2, 384]             2,304                --
├─PatchEmbed: 1-1                             [2, 3, 448, 448]     [2, 28, 28, 384]     --                   --
│    └─Conv2d: 2-1                            [2, 3, 448, 448]     [2, 384, 28, 28]     295,296              463,024,128
│    └─Identity: 2-2                          [2, 784, 384]        [2, 784, 384]        --                   --
├─RopePositionEmbedding: 1-2                  --                   [784, 64]            --                   --
├─ModuleList: 1-25                            --                   --                   (recursive)          --
│    └─SelfAttentionBlock: 2-3                [2, 789, 384]        [2, 789, 384]        --                   --
│    │    └─LayerNorm: 3-1                    [2, 789, 384]        [2, 789, 384]        768                  1,536
│    │    └─SelfAttention: 3-2                [2, 789, 384]        [2, 789, 384]        591,360              1,182,720
│    │    └─LayerScale: 3-3                   [2, 789, 384]        [2, 789, 384]        384                  --
│    │    └─LayerNorm: 3-4                    [2, 789, 384]        [2, 789, 384]        768                  1,536
│    │    └─SwiGLUFFN: 3-5                    [2, 789, 384]        [2, 789, 384]        1,772,928            3,545,856
│    │    └─LayerScale: 3-6                   [2, 789, 384]        [2, 789, 384]        384                  --
├─RopePositionEmbedding: 1-4                  --                   [784, 64]            --                   --
├─ModuleList: 1-25                            --                   --                   (recursive)          --
│    └─SelfAttentionBlock: 2-4                [2, 789, 384]        [2, 789, 384]        --                   --
│    │    └─LayerNorm: 3-7                    [2, 789, 384]        [2, 789, 384]        768                  1,536
│    │    └─SelfAttention: 3-8                [2, 789, 384]        [2, 789, 384]        591,360              1,182,720
│    │    └─LayerScale: 3-9                   [2, 789, 384]        [2, 789, 384]        384                  --
│    │    └─LayerNorm: 3-10                   [2, 789, 384]        [2, 789, 384]        768                  1,536
│    │    └─SwiGLUFFN: 3-11                   [2, 789, 384]        [2, 789, 384]        1,772,928            3,545,856
│    │    └─LayerScale: 3-12                  [2, 789, 384]        [2, 789, 384]        384                  --
├─RopePositionEmbedding: 1-6                  --                   [784, 64]            --                   --
├─ModuleList: 1-25                            --                   --                   (recursive)          --
│    └─SelfAttentionBlock: 2-5                [2, 789, 384]        [2, 789, 384]        --                   --
│    │    └─LayerNorm: 3-13                   [2, 789, 384]        [2, 789, 384]        768                  1,536
│    │    └─SelfAttention: 3-14               [2, 789, 384]        [2, 789, 384]        591,360              1,182,720
│    │    └─LayerScale: 3-15                  [2, 789, 384]        [2, 789, 384]        384                  --
│    │    └─LayerNorm: 3-16                   [2, 789, 384]        [2, 789, 384]        768                  1,536
│    │    └─SwiGLUFFN: 3-17                   [2, 789, 384]        [2, 789, 384]        1,772,928            3,545,856
│    │    └─LayerScale: 3-18                  [2, 789, 384]        [2, 789, 384]        384                  --
├─RopePositionEmbedding: 1-8                  --                   [784, 64]            --                   --
├─ModuleList: 1-25                            --                   --                   (recursive)          --
│    └─SelfAttentionBlock: 2-6                [2, 789, 384]        [2, 789, 384]        --                   --
│    │    └─LayerNorm: 3-19                   [2, 789, 384]        [2, 789, 384]        768                  1,536
│    │    └─SelfAttention: 3-20               [2, 789, 384]        [2, 789, 384]        591,360              1,182,720
│    │    └─LayerScale: 3-21                  [2, 789, 384]        [2, 789, 384]        384                  --
│    │    └─LayerNorm: 3-22                   [2, 789, 384]        [2, 789, 384]        768                  1,536
│    │    └─SwiGLUFFN: 3-23                   [2, 789, 384]        [2, 789, 384]        1,772,928            3,545,856
│    │    └─LayerScale: 3-24                  [2, 789, 384]        [2, 789, 384]        384                  --
├─RopePositionEmbedding: 1-10                 --                   [784, 64]            --                   --
├─ModuleList: 1-25                            --                   --                   (recursive)          --
│    └─SelfAttentionBlock: 2-7                [2, 789, 384]        [2, 789, 384]        --                   --
│    │    └─LayerNorm: 3-25                   [2, 789, 384]        [2, 789, 384]        768                  1,536
│    │    └─SelfAttention: 3-26               [2, 789, 384]        [2, 789, 384]        591,360              1,182,720
│    │    └─LayerScale: 3-27                  [2, 789, 384]        [2, 789, 384]        384                  --
│    │    └─LayerNorm: 3-28                   [2, 789, 384]        [2, 789, 384]        768                  1,536
│    │    └─SwiGLUFFN: 3-29                   [2, 789, 384]        [2, 789, 384]        1,772,928            3,545,856
│    │    └─LayerScale: 3-30                  [2, 789, 384]        [2, 789, 384]        384                  --
├─RopePositionEmbedding: 1-12                 --                   [784, 64]            --                   --
├─ModuleList: 1-25                            --                   --                   (recursive)          --
│    └─SelfAttentionBlock: 2-8                [2, 789, 384]        [2, 789, 384]        --                   --
│    │    └─LayerNorm: 3-31                   [2, 789, 384]        [2, 789, 384]        768                  1,536
│    │    └─SelfAttention: 3-32               [2, 789, 384]        [2, 789, 384]        591,360              1,182,720
│    │    └─LayerScale: 3-33                  [2, 789, 384]        [2, 789, 384]        384                  --
│    │    └─LayerNorm: 3-34                   [2, 789, 384]        [2, 789, 384]        768                  1,536
│    │    └─SwiGLUFFN: 3-35                   [2, 789, 384]        [2, 789, 384]        1,772,928            3,545,856
│    │    └─LayerScale: 3-36                  [2, 789, 384]        [2, 789, 384]        384                  --
├─RopePositionEmbedding: 1-14                 --                   [784, 64]            --                   --
├─ModuleList: 1-25                            --                   --                   (recursive)          --
│    └─SelfAttentionBlock: 2-9                [2, 789, 384]        [2, 789, 384]        --                   --
│    │    └─LayerNorm: 3-37                   [2, 789, 384]        [2, 789, 384]        768                  1,536
│    │    └─SelfAttention: 3-38               [2, 789, 384]        [2, 789, 384]        591,360              1,182,720
│    │    └─LayerScale: 3-39                  [2, 789, 384]        [2, 789, 384]        384                  --
│    │    └─LayerNorm: 3-40                   [2, 789, 384]        [2, 789, 384]        768                  1,536
│    │    └─SwiGLUFFN: 3-41                   [2, 789, 384]        [2, 789, 384]        1,772,928            3,545,856
│    │    └─LayerScale: 3-42                  [2, 789, 384]        [2, 789, 384]        384                  --
├─RopePositionEmbedding: 1-16                 --                   [784, 64]            --                   --
├─ModuleList: 1-25                            --                   --                   (recursive)          --
│    └─SelfAttentionBlock: 2-10               [2, 789, 384]        [2, 789, 384]        --                   --
│    │    └─LayerNorm: 3-43                   [2, 789, 384]        [2, 789, 384]        768                  1,536
│    │    └─SelfAttention: 3-44               [2, 789, 384]        [2, 789, 384]        591,360              1,182,720
│    │    └─LayerScale: 3-45                  [2, 789, 384]        [2, 789, 384]        384                  --
│    │    └─LayerNorm: 3-46                   [2, 789, 384]        [2, 789, 384]        768                  1,536
│    │    └─SwiGLUFFN: 3-47                   [2, 789, 384]        [2, 789, 384]        1,772,928            3,545,856
│    │    └─LayerScale: 3-48                  [2, 789, 384]        [2, 789, 384]        384                  --
├─RopePositionEmbedding: 1-18                 --                   [784, 64]            --                   --
├─ModuleList: 1-25                            --                   --                   (recursive)          --
│    └─SelfAttentionBlock: 2-11               [2, 789, 384]        [2, 789, 384]        --                   --
│    │    └─LayerNorm: 3-49                   [2, 789, 384]        [2, 789, 384]        768                  1,536
│    │    └─SelfAttention: 3-50               [2, 789, 384]        [2, 789, 384]        591,360              1,182,720
│    │    └─LayerScale: 3-51                  [2, 789, 384]        [2, 789, 384]        384                  --
│    │    └─LayerNorm: 3-52                   [2, 789, 384]        [2, 789, 384]        768                  1,536
│    │    └─SwiGLUFFN: 3-53                   [2, 789, 384]        [2, 789, 384]        1,772,928            3,545,856
│    │    └─LayerScale: 3-54                  [2, 789, 384]        [2, 789, 384]        384                  --
├─RopePositionEmbedding: 1-20                 --                   [784, 64]            --                   --
├─ModuleList: 1-25                            --                   --                   (recursive)          --
│    └─SelfAttentionBlock: 2-12               [2, 789, 384]        [2, 789, 384]        --                   --
│    │    └─LayerNorm: 3-55                   [2, 789, 384]        [2, 789, 384]        768                  1,536
│    │    └─SelfAttention: 3-56               [2, 789, 384]        [2, 789, 384]        591,360              1,182,720
│    │    └─LayerScale: 3-57                  [2, 789, 384]        [2, 789, 384]        384                  --
│    │    └─LayerNorm: 3-58                   [2, 789, 384]        [2, 789, 384]        768                  1,536
│    │    └─SwiGLUFFN: 3-59                   [2, 789, 384]        [2, 789, 384]        1,772,928            3,545,856
│    │    └─LayerScale: 3-60                  [2, 789, 384]        [2, 789, 384]        384                  --
├─RopePositionEmbedding: 1-22                 --                   [784, 64]            --                   --
├─ModuleList: 1-25                            --                   --                   (recursive)          --
│    └─SelfAttentionBlock: 2-13               [2, 789, 384]        [2, 789, 384]        --                   --
│    │    └─LayerNorm: 3-61                   [2, 789, 384]        [2, 789, 384]        768                  1,536
│    │    └─SelfAttention: 3-62               [2, 789, 384]        [2, 789, 384]        591,360              1,182,720
│    │    └─LayerScale: 3-63                  [2, 789, 384]        [2, 789, 384]        384                  --
│    │    └─LayerNorm: 3-64                   [2, 789, 384]        [2, 789, 384]        768                  1,536
│    │    └─SwiGLUFFN: 3-65                   [2, 789, 384]        [2, 789, 384]        1,772,928            3,545,856
│    │    └─LayerScale: 3-66                  [2, 789, 384]        [2, 789, 384]        384                  --
├─RopePositionEmbedding: 1-24                 --                   [784, 64]            --                   --
├─ModuleList: 1-25                            --                   --                   (recursive)          --
│    └─SelfAttentionBlock: 2-14               [2, 789, 384]        [2, 789, 384]        --                   --
│    │    └─LayerNorm: 3-67                   [2, 789, 384]        [2, 789, 384]        768                  1,536
│    │    └─SelfAttention: 3-68               [2, 789, 384]        [2, 789, 384]        591,360              1,182,720
│    │    └─LayerScale: 3-69                  [2, 789, 384]        [2, 789, 384]        384                  --
│    │    └─LayerNorm: 3-70                   [2, 789, 384]        [2, 789, 384]        768                  1,536
│    │    └─SwiGLUFFN: 3-71                   [2, 789, 384]        [2, 789, 384]        1,772,928            3,545,856
│    │    └─LayerScale: 3-72                  [2, 789, 384]        [2, 789, 384]        384                  --
├─LayerNorm: 1-26                             [2, 789, 384]        [2, 789, 384]        768                  1,536
├─Identity: 1-27                              [2, 384]             [2, 384]             --                   --
=============================================================================================================================
Total params: 28,697,472
Trainable params: 28,697,472
Non-trainable params: 0
Total mult-adds (Units.MEGABYTES): 519.81
=============================================================================================================================
Input size (MB): 4.82
…
